models/hifimeth-freq-s11.ckpt (torch, 215455 bytes, 28 tensors)

rnn.weight_ih_l0 f4 [96, 23]
-0.07365861 -0.049317658 -0.004858065 0.007374151 0.005045942 0.0078901695 0.004517821 0.004884778
0.002099271 0.0059610815 0.0029293916 0.007336307 0.0067104986 0.0076414794 0.0031268662 2.0892056e-05
0.0034840624 0.0050528827 0.0025637038 -0.0007021557 0.075395904 0.02051048 0.013184611 -0.0053999824
0.004019021 0.0019310003 0.0011298697 0.0025638463 0.0014578053 0.0015218596 0.0010989344 0.0013667038
-0.00027567573 0.00076135155 0.00024637452 0.001803233 -0.0005966273 -0.00082819833 0.0007406532 0.0017095507
-0.00019966757 -0.001997532 -0.0018587377 -0.002208614 0.0044287373 -0.00041246146 0.0068261814 0.0009574537
-0.0003931897 -0.00078753283 -0.00014230351 -0.00029640857 -0.000514139 -0.00053462386 8.790734e-05 1.3069621e-05
0.0005380997 0.0002615762 0.00021056307 -8.2304345e-05 0.00026607906 -0.00031806005 -0.0003994958 0.00025697812
1.6710392e-05 0.0002200906 0.0016573683 0.00031519166 0.000766494 0.012936033 0.005180751 -0.0012652975
-0.0008512789 0.00035978766 8.4175306e-05 -0.00095476076 -0.00048580935 -0.00032605673 0.00070610666 -0.00041465968
0.00034769927 0.00084401434 -0.00021021992 2.7361588e-05 -0.0029452795 3.7744754e-05 0.0019425699 -0.00021948972
0.0011613664 0.005798325 0.006946339 0.0031474752 -0.016905265 0.008831128 -0.000626815 0.00015425282
-0.0013037964 0.0022671542 0.0029696259 0.00076584046 0.0009664425 -1.5225823e-05 -0.00053150236 -0.00031611085
0.0005566292 -0.0001610748 1.6166749e-05 0.002066378 0.0010133161 0.00096913945 0.0014794571 -9.5953146e-05
0.0010045647 0.0074038776 0.0020170081 -0.024309762 0.0048036706 0.020037306 0.019605983 0.012985964
0.015059513 0.01623711 0.014026765 0.011875718 0.012780619 0.01001734 0.011825245 0.011939489
0.011282656 0.0073377397 0.005763841 0.007467176 0.004037842 -0.0013629773 -0.007898526 -0.011914964
0.024585426 -0.0027390532 0.051489286 0.004708857 0.0032753316 0.0043475516 0.0031085238 0.0011712667
0.000524901 0.0014607029 -0.00014819806 -0.0024410894 0.00054058415 -0.0013605807 0.0009690352 -0.0008426118
-0.0010495741 0.0018286539 -0.00043224223 -0.0003791199 -0.0008264698 -0.0012869613 0.00073512 0.0019059412
0.0011217542 -0.0062199803 0.0037579203 0.0013591974 0.0008088832 0.00211343 0.0009831075 0.0012106379
0.0006030607 0.0009155036 -0.0007612079 0.00030752027 7.556165e-05 0.0010130892 -0.0006697221 -0.00081524946
0.00031490508 0.0012901062 -0.00025251613 -0.0020478736 -0.001591251 -0.0013344033 0.0032154396 -0.00018962416
-0.08582405 0.008439789 0.0053437687 0.006455333 0.0065093664 0.0066583785 0.006847442 0.006761132
0.002227234 0.010630574 0.005385328 0.004173539 0.006363836 0.012253852 -0.0018555307 0.0006690352
-0.0047582574 -0.004848333 -0.012782628 -0.019291917 -0.0339079 0.019144433 -0.024504269 -0.036454722
-0.024295872 -0.0030351335 0.004529431 0.007211018 0.008031471 0.0111802565 0.011248749 0.010738212
0.006009353 0.010548549 0.014896704 0.009063946 0.010521607 0.014369278 0.014570532 0.012958344
0.0146798 0.0144177275 0.012512755 -0.0018830053 0.013255504 0.008250757 -0.09348848 0.022554021
0.017887212 0.011096329 0.0095905075 0.007732135 0.009984067 0.0080802245 0.009804957 0.0068624485
0.01021115 0.008576113 0.013022789 0.008924197 0.010794373 0.0052736485 0.015751366 0.015326426
0.007441575 0.012559199 -0.0040658796 0.04186938 -0.007850078 0.012201741 0.002097938 -0.00232143
00000000: 53da 96bd 5001 4abd 6730 9fbb dda2 f13b
00000010: 6e58 a53b c545 013c 3b0a 943b 7d10 a03b
00000020: ec93 093b 2d55 c33b 09fb 3f3b 6765 f03b
00000030: bee3 db3b 6065 fa3b 1cec 4c3b 5941 af37
00000040: de54 643b a792 a53b d003 283b df10 38ba
00000050: 2b69 9a3d 9805 a83c 4404 583c 56f2 b0bb
00000060: feb1 833b 9e19 fd3a 2318 943a 3406 283b
00000070: d413 bf3a 2279 c73a 1f0a 903a f822 b33a
00000080: 9288 90b9 7095 473a d42b 8139 765a ec3a
00000090: fb66 1cba 731b 59ba 6528 423a 0113 e03a
000000a0: db5d 51b9 07e9 02bb e3a0 f3ba 65be 10bb
000000b0: f11e 913b a43f d8b9 29ae df3b a1fd 7a3a
000000c0: 0725 ceb9 6f72 4eba 4f37 15b9 4967 9bb9
000000d0: 49c7 06ba 0026 0cba e55a b838 9845 5b37
000000e0: 420f 0d3a 2a24 8939 98ca 5c39 cf9a acb8
000000f0: 8780 8b39 4cc1 a6b9 6b73 d1b9 05bb 8639
00000100: 4b2d 8c37 1fc8 6639 0d3c d93a 4f40 a539
00000110: 8bee 483a a8f1 533c 4ac3 a93b 57d8 a5ba
00000120: 5c28 5fba e2a1 bc39 4687 b038 e948 7aba
00000130: 3ab4 feb9 98f2 aab9 041a 393a ae66 d9b9
00000140: 684b b639 d840 5d3a 7b6e 5cb9 9086 e537
00000150: 9705 41bb 1f50 1e38 d49d fe3a d326 66b9
00000160: fd38 983a e0ff bd3b 1d9e e33b df45 4e3b
00000170: e97c 8abc 6fb0 103c d850 24ba edbe 2139
00000180: 26e4 aaba 8994 143b 0e9e 423b afc2 483a
00000190: dc58 7d3a 6972 7fb7 8554 0bba aebb a5b9
000001a0: c1ea 113a 30e6 28b9 d49d 8737 126c 073b
000001b0: 3fd1 843a d90d 7e3a 58ea c13a 743a c9b8
000001c0: 99ab 833a 3a9c f23b c82f 043b 4425 c7bc
000001d0: 1c68 9d3b 4725 a43c ba9c a03c 15c3 543c
000001e0: 2dbc 763c b003 853c 84d0 653c 5f92 423c
000001f0: cd65 513c c51f 243c acbe 413c d99d 433c
00000200: e4da 383c 6c71 f03b 9ade bc3b 36af f43b
00000210: e04f 843b eea5 b2ba d268 01bc fb36 43bc
00000220: 6067 c93c b081 33bb 6ee6 523d c14c 9a3b
00000230: f2a6 563b e875 8e3b 60b8 4b3b 3085 993a
00000240: 8399 093a 0e75 bf3a 9d65 1bb9 affa 1fbb
00000250: fdb5 0d3a 8355 b2ba da06 7e3a b8e2 5cba
00000260: dd91 89ba 71af ef3a 929e e2b9 9dc4 c6b9
00000270: 73a7 58ba 41af a8ba 11b5 403a c6d0 f93a
00000280: d307 933a fad0 cbbb 7147 763b 1927 b23a
00000290: 3c0b 543a 7981 0a3b 9ddb 803a 44ae 9e3a
000002a0: b816 1e3a 68fe 6f3a cc8b 47ba ac3a a139
000002b0: da76 9e38 a2c9 843a 4a90 2fba 77b6 55ba
000002c0: d819 a539 c818 a93a 2464 84b9 9e35 06bb
000002d0: 8691 d0ba 25e7 aeba 20ba 523b d9d5 46b9
000002e0: 85c4 afbd 0a47 0a3c c81a af3b 4287 d33b
000002f0: 864c d53b 872e da3b 8260 e03b 7c8c dd3b
00000300: c9f6 113b dc2b 2e3c 6877 b03b 2fc2 883b
00000310: ba87 d03b 61c4 483c 4735 f3ba 3162 2f3a
00000320: 28eb 9bbb c4de 9ebb 3a6e 51bc 150a 9ebc
00000330: 03e3 0abd c9d4 9c3c 2dbd c8bc 8c51 15bd
00000340: 2308 c7bc 17e9 46bb 9f6b 943b 674a ec3b
00000350: 6e96 033c 652d 373c ac4c 383c 53ef 2f3c
00000360: 1bea c43b d2d3 2c3c 4e11 743c f280 143c
00000370: d162 2c3c 1f6d 6b3c 3eb9 6e3c 3c4f 543c
00000380: 8b83 703c 5538 6c3c 4c02 4d3c 2ccf f6ba
00000390: 9d2d 593c 2f2e 073c e376 bfbd 36c3 b83c
000003a0: 3488 923c 61cd 353c 8121 1d3c d95d fd3b
000003b0: 3694 233c eb62 043c f8a4 203c 64de e03b
000003c0: ab4c 273c d382 0c3c 895d 553c cc36 123c
000003d0: e2da 303c 92ce ac3b 0209 813c b11b 7b3c
000003e0: 75d8 f33b 19c5 4d3c 123b 85bb 3a7f 2b3d
000003f0: 9d9d 00bc d0e9 473c 8f7d 093b 2223 18bb

rnn.weight_hh_l0 f4 [96, 32]
-0.0023442362 0.030193321 0.030140134 0.031660922 -0.02004264 0.019340912 0.0031497546 0.030009408
-0.036881376 -0.041405905 -0.0124697825 0.03102281 0.03319791 -0.0039612153 0.00091753405 -0.0077590025
-0.029872738 0.030154157 0.03172572 0.0061505046 -0.03102996 -0.006409479 -0.02408852 -0.030652845
-0.01932944 0.020369614 0.008880679 0.021208758 -0.019900393 0.015103416 0.02956728 0.045678906
0.0019895353 0.0028721802 0.002945846 0.0032285724 -0.0024824596 0.0022403696 -0.001819364 0.002837287
-0.0018874047 -0.0019346043 -0.0011494781 0.0031220487 0.0017491293 0.0006614619 -0.0014951885 -0.0024740747
-0.0016654668 0.002509105 0.003244969 0.001378423 -0.0031523337 0.001275779 -0.0025475204 -0.0030676366
-0.0023096062 0.0018368147 6.8154172e-06 0.0023474633 -0.0026310002 -1.5755273e-05 0.002851435 0.0022051884
-5.9654827e-05 0.00036880933 0.00063346507 0.0006848716 0.00040802217 -0.00044753661 0.0016669732 0.00044458386
-0.0005323724 0.000903666 0.00036487795 0.0006650589 -0.0021531314 -0.0008723415 0.0008002631 -8.058797e-05
2.9955807e-05 -0.00021878329 0.00066423323 0.0006142149 -0.00059820095 6.316313e-05 0.00031102 -0.0006347038
0.00039240517 -0.0016239525 0.0012291535 -0.0002547565 0.00032189145 0.00070865516 0.00054394815 -0.0011138734
0.0057681766 0.008408266 0.008889193 0.0088814655 -0.005659819 0.0032454925 -4.0512467e-05 0.008519513
-0.009933824 0.0033760557 -0.0006188422 0.008883338 0.004080166 -0.00029034234 0.00085455383 -0.0059081386
-0.0033717318 0.0072801565 0.008865345 0.0046189614 -0.008778375 0.00048632978 -0.005980321 -0.008885842
-0.005647161 -0.0036326475 0.00037597265 0.006204967 -0.0059216227 0.0032550793 0.00883884 0.0012485236
0.009353102 0.009242134 0.009123503 0.009056732 -0.007479593 0.008025432 -0.004595284 0.009147112
-0.008031359 0.00813331 0.0031811951 0.009109762 0.011030207 0.00943426 -0.009735392 -0.009153912
0.00016679047 0.0096118525 0.009015383 -0.0007866335 -0.00887739 0.007908518 -0.00737125 -0.009085605
-0.007601504 -0.002175557 -0.007202917 0.0075289924 -0.00737284 -0.0017284338 0.009088317 0.00037709053
0.010907363 0.016251601 0.01776975 0.01941048 -0.013581782 0.016751777 0.00059104286 0.016693082
-0.013355238 0.00539935 -0.015102967 0.018848328 0.014144457 0.001284045 -0.012731612 -0.0024908218
0.00414209 0.013863529 0.019604018 0.032031875 -0.018887345 0.015181739 -0.013425755 -0.01854918
-0.01267895 0.01680192 0.012691514 0.012424858 -0.014085282 0.0050922004 0.017065704 0.01935456
-0.0011167618 0.0026358587 0.002503982 0.0025626863 -0.0010712394 0.00023289211 -0.0047579342 0.0024381536
-0.0018392691 -0.0017362633 0.00052520714 0.0025333103 -0.0015435339 -0.0026820095 0.0025827973 -0.0011983833
0.00024463618 0.0012109828 0.0025267529 -0.0020480636 -0.0026860584 -0.0020561346 -0.0009343921 -0.0025966654
-0.0008679006 0.001056313 0.0016266756 0.0010862037 -0.0011160619 0.006576254 0.0025323345 -0.003205483
0.00089523563 0.0020463443 0.002123883 0.0023962355 -0.0015088683 0.0013108165 -0.0006884563 0.0020315994
-0.001131678 -0.0007619125 -0.001559707 0.002295769 0.00082218443 -0.00020269591 -0.00022779235 -0.0023820277
-0.00028335306 0.001676476 0.0024103406 0.0013791939 -0.0023251346 0.00011067539 -0.0015709711 -0.0022427351
-0.0013541272 0.0004052733 0.00038506655 0.0014555994 -0.0016303066 0.00095188484 0.0020338811 0.0010197412
00000000: c2a1 19bb fc57 f73c 71e8 f63c e2ae 013d
00000010: 7630 a4bc d570 9e3c 1d6c 4e3b 4ad6 f53c
00000020: ed10 17bd 3d99 29bd 0f4e 4cbc 8c23 fe3c
00000030: 88fa 073d 15cd 81bb ab86 703a 3b3f febb
00000040: acb7 f4bc da05 f73c d4f2 013d 2c8a c93b
00000050: 8b32 febc 9b06 d2bb 4a55 c5bc ad1b fbbc
00000060: c658 9ebc 2dde a63c 4480 113c fdbd ad3c
00000070: 2606 a3bc 5174 773c 1537 f23c ce19 3b3d
00000080: dd62 023b 303b 3c3b 180f 413b 7596 533b
00000090: c3b0 22bb 2ad3 123b ba77 eeba c7f1 393b
000000a0: cb62 f7ba 8c92 fdba 16aa 96ba 499b 4c3b
000000b0: 0a43 e53a f565 2d3a 33fa c3ba 1624 22bb
000000c0: cb4b daba cc6f 243b 8ca9 543b 33ac b43a
000000d0: 6297 4ebb 0a38 a73a 4df4 26bb 670a 49bb
000000e0: c35c 17bb 46c1 f03a fdaf e436 e6d7 193b
000000f0: dc6c 2cbb 312a 84b7 24df 3a3b ec84 103b
00000100: e235 7ab8 c05c c139 1f0f 263a f488 333a
00000110: cfeb d539 59a3 eab9 577e da3a 0917 e939
00000120: e88e 0bba 00e4 6c3a 174d bf39 5957 2e3a
00000130: 8d1b 0dbb d9ad 64ba bfc8 513a 5601 a9b8
00000140: 9b49 fb37 3169 65b9 f01f 2e3a 4403 213a
00000150: 96d0 1cba 7276 8438 6610 a339 4062 26ba
00000160: bbbb cd39 ceda d4ba 8c1b a13a d790 85b9
00000170: 8ac3 a839 0bc5 393a be97 0e3a 64ff 91ba
00000180: f902 bd3b d3c2 093c faa3 113c 9183 113c
00000190: 0176 b9bb 54b2 543b eeeb 29b8 6d95 0b3c
000001a0: 7ac1 22bc d140 5d3b cc39 22ba 6c8b 113c
000001b0: eab2 853b 1739 98b9 2304 603a 0f99 c1bb
000001c0: 46f8 5cbb 618e ee3b f43f 113c a85a 973b
000001d0: 2cd3 0fbc 14fa fe39 92f6 c3bb ec95 11bc
000001e0: d20b b9bb b611 6ebb 321e c539 0953 cb3b
000001f0: 2c0a c2bb 2b53 553b c8d0 103c 80a5 a33a
00000200: c13d 193c 526c 173c bf7a 153c b062 143c
00000210: 6017 f5bb 1a7d 033c 0994 96bb c5dd 153c
00000220: f695 03bc 9341 053c 997b 503b 1c41 153c
00000230: 0bb8 343c 2892 1a3c 3281 1fbc 4afa 15bc
00000240: 7ae4 2e39 087b 1d3c 42b5 133c 1536 4eba
00000250: 7972 11bc bb92 013c 878a f1bb cadb 14bc
00000260: 0a16 f9bb ca93 0ebb 7206 ecbb c4b5 f63b
00000270: dd97 f1bb 9d8c e2ba 2ae7 143c 3cb4 c539
00000280: ccb4 323c 1422 853c de91 913c ba02 9f3c
00000290: 1f86 5ebc 063b 893c 37f0 1a3a eebf 883c
000002a0: eecf 5abc 08ed b03b 6f72 77bc cf67 9a3c
000002b0: 27be 673c 674d a83a 4098 50bc 0e3d 23bb
000002c0: 5fba 873b db23 633c 9b98 a03c db33 033d
000002d0: a2b9 9abc d4bc 783c b3f7 5bbc 73f4 97bc
000002e0: 5fbb 4fbc 2ea4 893c 11f0 4f3c a291 4b3c
000002f0: f4c5 66bc 79dc a63b 60cd 8b3c 748d 9e3c
00000300: 4f60 92ba 5fbe 2c3b d919 243b bef2 273b
00000310: d468 8cba 8034 7439 72e8 9bbb 6ec9 1f3b
00000320: a113 f1ba 5493 e3ba 0eae 093a e505 263b
00000330: 6750 caba a7c4 2fbb 2644 293b 1213 9dba
00000340: 8342 8039 d7b9 9e3a e197 253b ce38 06bb
00000350: 9508 30bb 37c0 06bb fef1 74ba d12c 2abb
00000360: d383 63ba fc73 8a3a 2d36 d53a f35e 8e3a
00000370: d348 92ba 9e7d d73b 86f5 253b 1513 52bb
00000380: 3fae 6a3a f61b 063b d830 0b3b 290a 1d3b
00000390: 38c5 c5ba b4cf ab3a 8579 34ba 9524 053b
000003a0: d054 94ba 15bb 47ba 156f ccba 9d74 163b
000003b0: dd87 573a c58a 54b9 8bdb 6eb9 cb1b 1cbb
000003c0: 018f 94b9 33bd db3a cef6 1d3b 11c6 b43a
000003d0: 4961 18bb 661a e838 0be9 cdba dafa 12bb
000003e0: f87c b1ba dd7a d439 c2e2 c939 d0c9 be3a
000003f0: 03b0 d5ba e987 793a dd4a 053b d6a8 853a

rnn.bias_ih_l0 f4 [96]
0.032835815 0.0035246664 0.0009967001 0.009138486 0.009316216 0.022013139 0.002899196 0.0026739142
0.001588428 0.017785123 0.033801388 0.0046527158 0.12622482 0.0034742183 0.007927632 0.0072033997
0.0202192 0.010179707 0.009964328 -0.018451992 0.0048027346 0.014387096 0.0070093777 0.0031502666
0.008779064 0.0036389122 0.0036672037 0.008982223 0.0054711835 -0.0057282625 0.00015201292 0.012465803
-0.0077274274 -0.011579554 0.001849759 0.025448611 -0.015390543 -0.078947835 0.0036957834 -0.014449631
-0.1428045 -0.13421054 -0.071721435 0.014070787 -0.06336467 -0.0076354393 -0.016213344 -0.023755357
0.035293836 -0.15967807 0.025394447 -0.066904895 0.0153992735 -0.015886562 -0.0144568775 0.008997684
-0.014622982 0.01453643 0.029492227 -0.014527433 -0.009500917 -0.04909402 -0.005220006 -0.11944111
-0.08675327 0.013441913 0.029209021 0.06557223 0.04865314 0.003279476 0.046757255 0.01087344
-0.20099282 -0.021601848 -0.012898362 0.054322325 -0.2724728 -0.04665544 0.06777577 0.041653536
0.13883555 -0.06711523 0.06628438 0.2023831 -0.05243973 -0.045165725 0.049455382 -0.04523795
0.049655538 -0.082629025 -0.011499286 -0.045477603 0.04712789 0.09672014 0.015153831 -0.14458954
00000000: d97e 063d 17fe 663b b5a3 823a 97b9 153c
00000010: 0ba3 183c e654 b43c 7000 3e3b d63c 2f3b
00000020: cd32 d03a 1bb2 913c 5373 0a3d cf75 983b
00000030: 1441 013e b6af 633b e6e2 013c 7f0a ec3b
00000040: bca2 a53c c9c8 263c 6c41 233c a228 97bc
00000050: 4260 9d3b dbb7 6b3c ecae e53b b474 4e3b
00000060: 10d6 0f3c d17a 6e3b 7855 703b 2d2a 133c
00000070: 9d47 b33b 26b4 bbbb a865 1f39 5e3d 4c3c
00000080: 5c36 fdbb 2bb8 3dbc 9d73 f23a 9b79 d03c
00000090: 9e28 7cbc 67af a1bd f534 723b 25be 6cbc
000000a0: 583b 12be 7d6e 09be b0e2 92bd 2889 663c
000000b0: 56c5 81bd b532 fabb d9d1 84bc 989a c2bc
000000c0: 4590 103d a682 23be 0408 d03c 6f05 89bd
000000d0: 3c4d 7c3c 8924 82bc 8adc 6cbc 066b 133c
000000e0: 3b95 6fbc 352a 6e3c af99 f13c 7804 6ebc
000000f0: bca9 1bbc d016 49bd 960c abbb 8a9d f4bd
00000100: b3ab b1bd 783b 5c3c c247 ef3c bc4a 863d
00000110: 8448 473d 7aec 563b 8984 3f3d 8326 323c
00000120: 10d1 4dbe 5cf6 b0bc a753 53bc 1681 5e3d
00000130: 8e81 8bbe c619 3fbd 06ce 8a3d e69c 2a3d
00000140: e82a 0e3e b673 89bd 1bc0 873d 843d 4f3e
00000150: 0bcb 56bd b2ff 38bd ba91 4a3d 6e4b 39bd
00000160: 9b63 4b3d 6839 a9bd 8067 3cbc b946 3abd
00000170: 2d09 413d 3515 c63d c647 783c 480f 14be

rnn.bias_hh_l0 f4 [96]
0.032835815 0.0035246662 0.0009966935 0.009138486 0.009316216 0.022013139 0.0028991955 0.0026739142
0.0016205359 0.017726546 0.033801388 0.0046527158 0.1262248 0.0034742183 0.007927632 0.0072033997
0.0202192 0.010179708 0.009964329 -0.018451994 0.004802733 0.014387096 0.0070093772 0.0031502666
0.008779064 0.0036389122 0.0036672037 0.008982223 0.0054711835 -0.005728263 0.00015201022 0.012465803
-0.008900726 -0.011579555 0.0018497594 0.025448611 -0.015390543 -0.07894784 0.0036957813 -0.014449631
-0.14280504 -0.13421056 -0.071721435 0.0140707875 -0.0565672 -0.007635441 -0.016213344 -0.023755357
0.035293836 -0.1596709 0.025394447 -0.066904895 0.0153992735 -0.015886562 -0.0144568775 0.008997683
-0.0146229835 0.01453643 0.029492227 -0.014527431 -0.009500916 -0.049094025 -0.005220006 -0.11944349
-0.030152781 0.009690913 0.015605325 0.035884723 0.026144434 0.011755352 0.029771175 0.010762493
0.08242706 -0.058209818 0.013060353 0.0286981 -0.21359797 -0.04024727 0.054395307 0.022410221
0.13698669 -0.024775183 0.03651803 0.2834375 -0.02783154 -0.043761127 0.02522704 -0.023837654
0.026335169 -0.08528963 0.013538637 -0.02434016 0.023203164 0.084941775 0.008762223 0.006169997
00000000: d97e 063d 16fe 663b 7ca3 823a 97b9 153c
00000010: 0ba3 183c e654 b43c 6e00 3e3b d63c 2f3b
00000020: 2968 d43a 4337 913c 5373 0a3d cf75 983b
00000030: 1341 013e b6af 633b e6e2 013c 7f0a ec3b
00000040: bca2 a53c cac8 263c 6d41 233c a328 97bc
00000050: 3f60 9d3b dbb7 6b3c ebae e53b b474 4e3b
00000060: 10d6 0f3c d17a 6e3b 7855 703b 2d2a 133c
00000070: 9d47 b33b 27b4 bbbb ef64 1f39 5e3d 4c3c
00000080: 5ad4 11bc 2db8 3dbc a073 f23a 9b79 d03c
00000090: 9e28 7cbc 68af a1bd ec34 723b 25be 6cbc
000000a0: 7c3b 12be 7e6e 09be b0e2 92bd 2989 663c
000000b0: 02b3 67bd b932 fabb d9d1 84bc 989a c2bc
000000c0: 4590 103d c580 23be 0408 d03c 6f05 89bd
000000d0: 3c4d 7c3c 8924 82bc 8adc 6cbc 056b 133c
000000e0: 3d95 6fbc 352a 6e3c af99 f13c 7604 6ebc
000000f0: bba9 1bbc d116 49bd 960c abbb ca9e f4bd
00000100: f702 f7bc a3c6 1e3c 7aad 7f3c dcfb 123d
00000110: da2c d63c 8599 403c aee2 f33c 2b55 303c
00000120: 85cf a83d 6b6d 6ebd 17fb 553c 4718 eb3c
00000130: 6db9 5abe 52da 24bd 9dcd 5e3d a495 b73c
00000140: 3d46 0c3e 53f5 cabc ee93 153d b81e 913e
00000150: f8fe e3bc de3e 33bd f0a8 ce3c 2f47 c3bc
00000160: dabc d73c 54ac aebd 29d1 5d3c 0465 c7bc
00000170: 9014 be3c f4f5 ad3d 6d8f 0f3c b02d ca3b

rnn.weight_ih_l0_reverse f4 [96, 23]
-0.035885483 0.0054216236 0.0018202157 -0.00051480083 -0.0041804165 0.0029146697 0.0032320484 -0.0021907662
0.0015345004 0.0006561683 -0.0020785339 -0.0015896639 -0.0027140677 -0.00017687416 -0.0014377483 0.0005885861
-4.822266e-05 -0.00065558124 0.0008405496 -0.0031253153 -0.0012958706 0.0074350187 -0.0033698855 -0.07201904
0.005846032 -0.0030463042 -0.0007934537 0.004119318 0.005446229 0.0061221807 0.009569169 0.0073429337
0.0120372055 0.008800982 0.011402544 0.0107072545 0.011390064 0.012362827 0.014102801 0.015009389
0.014018001 0.019861821 0.015859047 0.015602005 0.0030271052 0.0042343684 -0.008188818 0.004374473
-0.0005138352 0.0001250393 -0.0015992806 0.0002160929 -0.00058529904 0.0007683105 -0.0023989799 1.2491537e-05
-0.0002141817 -0.0003539476 0.00058020634 -0.0005755588 9.702011e-05 0.0005776147 0.00080964307 0.00012176664
-0.0008899637 -0.0008004609 0.0017908557 0.0058941157 -0.0006839087 -0.022509145 0.002708718 -0.0006391865
-0.00036049067 -0.0019829625 -0.0006458085 -0.0010770509 -0.00036575168 -0.0016345732 -6.3701254e-06 -8.489187e-05
-7.435488e-05 -0.00053226145 -0.0004030617 3.9910738e-05 0.00034888773 -0.00057368603 -0.0001840957 -9.208439e-05
-0.00053092634 0.0006105989 0.0033251639 -0.00024203336 -0.03173102 0.0039191134 0.0015320797 -0.0006970022
-0.0035383177 0.0028873298 0.0036046251 -0.0015167721 0.0011929969 0.00046231967 -0.0015119973 -0.001556015
-0.0017764588 -5.5878227e-05 -0.0011140249 0.00060126797 2.1963468e-05 -0.00078925706 0.00028470383 -0.0024847502
-0.000854406 0.0061846757 -0.0034191029 -0.15790643 -0.023820356 -0.01824634 -0.015025744 -0.006262549
-0.010575074 -0.00845062 -0.0011515606 -0.0024635096 -0.0077807843 -0.0056266594 -0.009867794 0.0012688492
0.0011724655 0.003366692 0.00028785027 -0.0067660646 0.0036196474 0.0015353983 0.019218799 0.12721513
0.029597277 0.051171295 0.09627185 0.009085751 0.0047968714 0.0026137605 0.0017384252 0.005339708
0.0052405284 0.004910837 0.0014265676 0.0043883426 0.0006115611 0.0017133852 0.0035261954 0.0005311876
0.002854946 0.0006705569 0.0057679405 0.0022851343 -0.001789769 -0.006781819 -0.0018347608 0.016495002
-0.00011005371 -0.008364192 0.0015122241 0.0006158591 -0.0002694296 -0.0007357728 0.00042521147 0.0006433092
0.00015943256 -0.00012866528 7.4807445e-05 -0.00063270127 -0.00023538414 -0.0005534658 0.00023387364 3.3524095e-05
0.0007542101 0.00031451348 -0.0009579811 0.0001461323 -0.0007040302 -0.00043799749 0.002148708 -0.0024353757
-0.018246017 0.0007219801 -2.0012123e-05 -0.00032209407 -0.0013557995 -0.0002980531 -0.000107765205 -0.0006105398
3.2297987e-05 0.0003474046 0.00032405733 7.3170515e-05 -0.00046453308 -0.00054246496 0.0001276661 0.00013946263
-0.0003059348 -0.00041905962 0.0006726834 -0.00051608 0.0021131325 0.0014179136 0.0011235006 -0.029440746
0.0042929966 0.0006129081 -0.0016975442 -0.0046626683 0.0016979774 0.0017976129 -0.0024557025 0.00064439344
0.00027442854 -0.0023247756 -0.0014613512 -0.0027342183 -0.000624849 -0.0013475074 0.0002735235 -0.0006399893
-0.0010935382 0.0010298148 -0.0029415565 -0.00048729155 0.0057986267 -0.00341237 -0.015083199 0.0026252568
0.0005293689 -0.0012018578 -0.002211219 0.00033071593 0.0013094118 -0.00035639986 0.000100521254 0.00023146594
-0.0008472196 -0.00013314481 -0.0011396975 -0.00011078298 1.3470781e-05 0.0007213978 0.0002906855 -0.0008898714
0.00095820706 -0.0004442298 0.00091200654 0.0036878197 -0.0028307226 -0.017917532 0.0035800124 8.014015e-05
00000000: a8fc 12bd e0a7 b13b 4e94 ee3a b3f3 06ba
00000010: e0fb 88bb 0b04 3f3b c6d0 533b f592 0fbb
00000020: 4a21 c93a b602 2c3a 0338 08bb 455c d0ba
00000030: 80de 31bb 4c77 39b9 d472 bcba 584b 1a3a
00000040: b042 4ab8 50db 2bba 5458 5c3a 17d2 4cbb
00000050: 34da a9ba 75a1 f33b 4cd9 5cbb b87e 93bd
00000060: 1290 bf3b 81a4 47bb c7ff 4fba 58fb 863b
00000070: 4876 b23b 939c c83b 01c8 1c3c fe9c f03b
00000080: b337 453c fe31 103c bcd1 3a3c 7b6d 2f3c
00000090: 649d 3a3c 748d 4a3c 6f0f 673c f1e9 753c
000000a0: c2ab 653c 42b5 a23c d5ea 813c 8d9f 7f3c
000000b0: 6662 463b 75c0 8a3b 642a 06bc bd57 8f3b
000000c0: e6b2 06ba fb1c 0339 f49e d1ba ff96 6239
000000d0: c16e 19ba 7268 493a 3438 1dbb be92 5137
000000e0: f695 60b9 0b92 b9b9 fd18 183a 19e1 16ba
000000f0: 4677 cb38 116b 173a 3a3e 543a f85c ff38
00000100: 744c 69ba 06d6 51ba 25bb ea3a 6d23 c13b
00000110: 5648 33ba 1965 b8bc bf84 313b 148f 27ba
00000120: 3d00 bdb9 97f4 01bb 7a4b 29ba d52b 8dba
00000130: 5cc2 bfb9 2d3f d6ba f6be d5b6 fa07 b2b8
00000140: f9ee 9bb8 7687 0bba 0752 d3b9 d465 2738
00000150: ebea b639 6b63 16ba d009 41b9 6e1d c1b8
00000160: dd2d 0bba 9910 203a feea 593b 56ca 7db9
00000170: 63f8 01bd e86b 803b 10d0 c83a 07b7 36ba
00000180: 1fe3 67bb 5b39 3d3b 933b 6c3b 6dce c6ba
00000190: 555e 9c3a 7f63 f239 362e c6ba 33f3 cbba
000001a0: 11d8 e8ba ca5e 6ab8 7904 92ba 699e 1d3a
000001b0: 303e b837 25e6 4eba 4d44 9539 31d7 22bb
000001c0: 37fa 5fba d2a8 ca3b 0713 60bb 39b2 21be
000001d0: e822 c3bc 5979 95bc 8a2e 76bc 1236 cdbb
000001e0: 1343 2dbc 7874 0abc f6ef 96ba d572 21bb
000001f0: f3f5 febb d75f b8bb 87ac 21bc 844f a63a
00000200: 6aad 993a b8a3 5c3b 9cea 9639 ddb5 ddbb
00000210: 9b37 6d3b 6b3f c93a be70 9d3c af44 023e
00000220: fd75 f23c fe98 513d 2d2a c53d 67dc 143c
00000230: 132f 9d3b a04b 2b3b dfdb e33a b8f8 ae3b
00000240: bdb8 ab3b 16eb a03b aafb ba3a 16cc 8f3b
00000250: 2c51 203a ab93 e03a be17 673b 653f 0b3a
00000260: 0c1a 3b3b 50c8 2f3a fe00 bd3b 31c2 153b
00000270: af96 eaba 053a debb 5b7c f0ba 8720 873c
00000280: a3cc e6b8 f709 09bc d235 c63a 9b71 213a
00000290: 3b42 8db9 e0e0 40ba ebee de39 c0a3 283a
000002a0: 5a2d 2739 53ea 06b9 f1e1 9c38 dddb 25ba
000002b0: 73d1 76b9 7616 11ba fa3b 7539 399c 0c38
000002c0: 2fb6 453a 49e5 a439 0621 7bba 173b 1939
000002d0: ab8e 38ba 07a3 e5b9 57d1 0c3b d39a 1fbb
000002e0: ac78 95bc 4443 3d3a b5df a7b7 bcde a8b9
000002f0: 15b5 b1ba 0344 9cb9 0100 e2b8 a20c 20ba
00000300: b377 0738 db23 b639 3de6 a939 1f73 9938
00000310: 938c f3b9 3534 0eba 1cde 0539 b73c 1239
00000320: e065 a0b9 3bb5 dbb9 0557 303a 8b49 07ba
00000330: 7b7c 0a3b 49d9 b93a 6d42 933a b82d f1bc
00000340: 44ac 8c3b 91ab 203a 2280 deba 4cc9 98bb
00000350: ab8e de3a e19d eb3a daef 20bb 83ec 283a
00000360: 2de1 8f39 435b 18bb cf8a bfba 9230 33bb
00000370: e8cc 23ba d89e b0ba b467 8f39 f4c4 27ba
00000380: 0e55 8fba dafa 863a 21c7 40bb 2a7b ffb9
00000390: 6802 be3b 12a2 5fbb 861f 77bc 800c 2c3b
000003a0: 58c5 0a3a a887 9dba 19ea 10bb f163 ad39
000003b0: 92a0 ab3a 2edb bab9 f0ce d238 aab5 7239
000003c0: f217 5eba ca9c 0bb9 e761 95ba 2954 e8b8
000003d0: 9000 6237 301c 3d3a 2667 9839 4246 69ba
000003e0: 3030 7b3a 84e7 e8b9 b913 6f3a 59af 713b
000003f0: a583 39bb cac7 92bc a49e 6a3b ea10 a838

rnn.weight_hh_l0_reverse f4 [96, 32]
-0.005485741 0.0007962378 -0.006431253 -0.006039809 -0.005658012 -0.0077734217 -0.0064980537 0.006131338
-0.0047505526 -0.0056036846 -0.005839927 0.005926651 6.859478e-05 0.0015099673 0.00607993 0.0025382664
-0.004609405 0.0034258312 -0.0061504524 0.0064580734 -0.0058394005 0.00621073 0.009030376 0.0064250557
-0.0055168965 -0.006297861 -0.006479547 -0.0060819583 -0.0067560435 -0.0063365106 -0.003562617 -0.0043379115
0.0014718054 -0.0008155587 -0.0018998991 -0.005828329 0.0016621794 0.031801313 -0.012954798 -0.0041088704
-0.0062643862 0.0018844423 0.0044319234 0.008462238 0.020418271 0.0013720187 0.010396404 0.0015960293
-0.0051013487 0.005218727 0.0021972319 0.0024181427 -0.008957479 -0.0021648828 0.009434165 0.003237329
0.0015029449 0.004113905 -0.0030834735 -0.005568409 -0.01649 -0.0034096378 0.012223161 0.00757152
-0.0054614227 -0.0029171975 -0.0047787745 -0.004934825 -0.0055209124 -0.0060956166 -0.0053342395 0.0053300154
-0.004743868 -0.005487912 -0.0053629177 0.0052573923 -0.0021578823 0.0037352827 0.0058410377 0.0060187555
-0.0044410867 0.004054768 -0.0054877168 0.004810799 -0.0055437908 0.0053356155 0.000402548 0.004915749
-0.005437374 -0.0047828127 -0.0048934394 -0.004966361 -0.004553181 -0.0052287774 -0.005415832 -0.005414611
-0.0028908884 0.00015321691 -0.0017032875 -0.0012596291 -0.0028198664 -0.0032108452 -0.0017193321 0.0029152553
-0.0016701843 -0.0028471441 -0.0028217065 0.0014779273 -0.0015758829 0.003700227 0.0015543944 0.0038342727
-0.0015314793 0.0015235934 -0.0029579618 0.002212702 -0.0013328232 0.0030431126 0.0011483599 0.0018004131
-0.002871708 -0.0024697834 -0.0017112014 -0.0011916193 -0.0014683598 -0.0029465233 -0.0027034597 -0.0017198147
-0.003959514 0.0011139452 -0.0045929356 -0.0043738065 -0.0040951152 -0.0057916897 -0.004501763 0.004489448
-0.0035338234 -0.0040550996 -0.0042494005 0.004281919 0.0006695804 0.00037083687 0.0040633897 0.0011645878
-0.003443445 0.0025393264 -0.0045220447 0.004711799 -0.0041163606 0.004566608 0.0080840215 0.0046339333
-0.0039873184 -0.0046166363 -0.004638374 -0.004430617 -0.0050018593 -0.0046886634 -0.0021390687 -0.0027722435
-0.0745503 0.038543183 -0.0019665335 0.01262393 -0.074940495 4.0019324e-05 0.005560092 0.06452971
0.002433881 -0.07428591 -0.06526351 -0.015417027 0.0015937488 -0.0061239447 -0.045031134 -0.029962154
-0.0005943255 -0.011688342 -0.07388309 0.022741158 0.041821994 0.06432263 0.009334129 0.0062060487
-0.07470132 -0.041308306 -0.00078078895 0.012407593 -0.0032145705 -0.069625534 -0.07605975 0.03224155
-0.01506784 -0.006547164 -0.017198417 -0.017880103 -0.015602103 -0.01651745 -0.020729022 0.015015997
-0.010894961 -0.015219016 -0.0148531245 0.018317366 0.0003273915 -0.0075340206 0.021402769 0.001404613
-0.009199549 0.00459008 -0.015694954 0.016126402 -0.019718505 0.015362933 0.004605792 0.017415365
-0.014963623 -0.01432296 -0.017811188 -0.017820008 -0.017210454 -0.014131519 -0.02676971 -0.019203186
-0.0009303233 5.8163343e-05 -0.0011742831 -0.0012745458 -0.0009650259 -0.0020375685 -0.0010192603 0.0010791948
-0.0014324139 -0.00096208235 -0.0010697822 0.001294471 -0.0012808354 0.0010685014 0.0011486235 0.0011040312
-0.0014630973 0.0014294422 -0.0010915633 0.0011982062 -0.0012760315 0.0011278605 0.003913584 0.0012095973
-0.00094168534 -0.0012356985 -0.001199231 -0.0013202052 -0.0012662107 -0.0011570272 -0.0006332619 -0.00088517973
00000000: bbc1 b3bb 9dba 503a 43bd d2bb 97e9 c5bb
00000010: d866 b9bb 30b8 febb a0ed d4bb 64e9 c83b
00000020: 86aa 9bbb 1d9f b7bb dc5c bfbb 5a34 c23b
00000030: 8bda 8f38 18ea c53a 263a c73b 0b59 263b
00000040: 7e0a 97bb e983 603b bc89 c9bb 3f9e d33b
00000050: 7158 bfbb 6183 cb3b 24f4 133c 4689 d23b
00000060: 15c7 b4bb 4a5e cebb 6152 d4bb 2a4b c7bb
00000070: cd61 ddbb 81a2 cfbb cc7a 69bb 0a25 8ebb
00000080: 98e9 c03a 38cb 55ba 0906 f9ba 91fb bebb
00000090: 7cdd d93a 1842 023d 5c40 54bc b4a3 86bb
000000a0: 7b45 cdbb 64ff f63a ab39 913b 33a5 0a3c
000000b0: 3844 a73c 4fd5 b33a ae55 2a3c db31 d13a
000000c0: 3729 a7bb db01 ab3b 6fff 0f3b b479 1e3b
000000d0: 64c2 12bc b5e0 0dbb c291 1a3c 5e29 543b
000000e0: 76fe c43a f0cd 863b 1a14 4abb 3377 b6bb
000000f0: 0916 87bc 3b74 5fbb a743 483c 831a f83b
00000100: bcf5 b2bb 742e 3fbb 4497 9cbb 50b4 a1bb
00000110: c5e8 b4bb bdbd c7bb d8ca aebb 69a7 ae3b
00000120: 7372 9bbb f1d3 b3bb 6abb afbb 3446 ac3b
00000130: 426b 0dbb a5cb 743b 2d66 bf3b fb38 c53b
00000140: 8986 91bb dcdd 843b 4ed2 b3bb e8a3 9d3b
00000150: b0a8 b5bb 63d6 ae3b 140d d339 4b14 a13b
00000160: 002c b2bb 24b9 9cbb 2559 a0bb dbbc a2bb
00000170: da32 95bb 2a56 abbb 4b77 b1bb 0d6d b1bb
00000180: 0f75 3dbb daa8 2039 d840 dfba 241a a5ba
00000190: 82cd 38bb 0b6d 52bb 365b e1ba de0d 3f3b
000001a0: 16ea daba 2797 3abb 61ec 38bb 03b7 c13a
000001b0: db8d ceba 827f 723b d2bc cb3a 6c48 7b3b
000001c0: ebbb c8ba 50b3 c73a 5dda 41bb fb02 113b
000001d0: 20b2 aeba f56e 473b 9084 963a d7fb eb3a
000001e0: 4433 3cbb 17dc 21bb 644a e0ba 1c30 9cba
000001f0: fb75 c0ba 751a 41bb 872c 31bb 686b e1ba
00000200: d0be 81bb cc01 923a 5680 96bb 2652 8fbb
00000210: 5130 86bb 37c8 bdbb 8683 93bb 381c 933b
00000220: b897 67bb a4e0 84bb 8e3e 8bbb 574f 8c3b
00000230: c886 2f3a e26c c239 2f26 853b 15a5 983a
00000240: 6cab 61bb d46a 263b a92d 94bb 6f65 9a3b
00000250: 89e2 86bb 7ca3 953b d872 043c 40d8 973b
00000260: 0da8 82bb 2747 97bb 80fd 97bb b62e 91bb
00000270: a3e6 a3bb 5ca3 99bb 9e2f 0cbb 87ae 35bb
00000280: d4ad 98bd 75df 1d3d f5e0 00bb 9ad4 4e3c
00000290: 677a 99bd 6cda 2738 6f31 b63b 2728 843d
000002a0: bf81 1f3b 3623 98bd e0a8 85bd b397 7cbc
000002b0: 56e5 d03a 5fab c8bb 9172 38bd 3173 f5bc
000002c0: 82cc 1bba 7680 3fbc 0450 97bd aa4b ba3c
000002d0: 8a4d 2b3d 95bb 833d 2dee 183c 1c5c cb3b
000002e0: 01fd 98bd e632 29bd dcad 4cba 3849 4b3c
000002f0: 8bab 52bb d597 8ebd 37c5 9bbd b70f 043d
00000300: 1adf 76bc 9889 d6bb b2e3 8cbc 4b79 92bc
00000310: f79f 7fbc 9a4f 87bc e9cf a9bc a805 763c
00000320: c780 32bc 2e59 79bc 855a 73bc 4d0e 963c
00000330: bea5 ab39 f2df f6bb dc54 af3c fe1a b83a
00000340: b5b9 16bc 6268 963b b492 80bc 841b 843c
00000350: b488 a1bc d0b4 7b3c 2fec 963b abaa 8e3c
00000360: fc29 75bc d9aa 6abc c5e8 91bc 44fb 91bc
00000370: f0fc 8cbc e387 67bc 274c dbbc 0050 9dbc
00000380: f1e0 73ba 6af4 7338 67ea 99ba a90e a7ba
00000390: cbf9 7cba ba88 05bb b398 85ba c573 8d3a
000003a0: d6bf bbba 4134 7cba ef37 8cba 3dab a93a
000003b0: b4e1 a7ba f50c 8c3a 698d 963a 24b5 903a
000003c0: 66c5 bfba 1f5c bb3a c912 8fba 210d 9d3a
000003d0: 8340 a7ba b8d4 933a 863d 803b 5a8b 9e3a
000003e0: 6fdb 76ba 29f7 a1ba 842f 9dba bc0a adba
000003f0: fbf6 a5ba 64a7 97ba 7d01 26ba 680b 68ba

rnn.bias_ih_l0_reverse f4 [96]
0.0061955554 0.004033537 0.005679704 0.0034540966 0.0045825876 0.08488992 0.017047081 0.0010621652
0.0024008635 0.0045024045 0.002799545 0.0040690815 -0.0039327284 0.0044642016 0.009973421 0.011113743
0.0028587393 -0.0011843455 -6.1129737e-07 -2.6859241e-05 0.01014706 0.00015894132 0.04075547 0.0060301125
0.0053318306 0.0038007263 0.0049964674 0.0035559987 0.0073316703 0.030162605 0.03535123 0.009439304
-0.03074811 -0.075575754 -0.018082116 -0.011127991 -0.03133468 -0.111673504 -0.04542963 -0.015942845
6.0278026e-06 -0.030599656 -0.019367864 -0.0166294 0.020736428 0.0027831749 -0.013967049 -0.013150561
0.004058547 0.001022 -0.011281715 -0.002868985 -0.013613897 -0.005045686 -0.13406458 -0.018536739
-0.03141023 -0.01940504 -0.01654105 -0.009747612 -0.015301564 -0.15153143 -0.114260435 -0.07748031
0.043475095 -0.0128695 0.048989188 0.059393816 0.042213526 0.21651365 0.001876963 -0.021830937
0.06439921 0.04448449 0.03395395 -0.05924481 0.06441048 -0.045896184 -0.057677925 -0.062567934
0.0732436 -0.12220468 0.010329235 -0.02225304 0.07982808 0.00478671 -0.04948113 -0.04575197
0.046811663 0.03446177 0.049519688 0.058104586 0.100965574 0.013200629 -0.20847549 -0.048419137
00000000: 1604 cb3b c32b 843b cf1c ba3b 205e 623b
00000010: 8829 963b c4da ad3d 52a6 8b3c 5a38 8b3a
00000020: ce57 1d3b e888 933b 9278 373b ee55 853b
00000030: 1ede 80bb 7048 923b 8f67 233c 6b16 363c
00000040: b059 3b3b 0a3c 9bba 0918 24b5 c84f e1b7
00000050: db3f 263c 7ca9 2639 35ef 263d 4098 c53b
00000060: a3b6 ae3b 9b15 793b 68b9 a33b c20b 693b
00000070: 823e f03b 9117 f73c 74cc 103d 4fa7 1a3c
00000080: 76e3 fbbc 76c7 9abd f220 94bc 2d52 36bc
00000090: cb58 00bd 14b5 e4bd 6b14 3abd 929a 82bc
000000a0: 6e42 ca36 21ac fabc 5ba9 9ebc 613a 88bc
000000b0: 71df a93c ed65 363b 0dd6 64bc 7375 57bc
000000c0: 8ffd 843b a1f4 853a f1d6 38bc 9505 3cbb
000000d0: d30c 5fbc 4856 a5bb 3a48 09be 5cda 97bc
000000e0: 03a8 00bd 52f7 9ebc 1981 87bc 73b4 1fbc
000000f0: 69b3 7abc 0e2b 1bbe 6001 eabd ffad 9ebd
00000100: f112 323d 98da 52bc e3a8 483d ee46 733d
00000110: 17e8 2c3d c1b5 5d3e 6d04 f63a cbd6 b2bc
00000120: bce3 833d 5e35 363d 4c13 0b3d b0aa 72bd
00000130: a4e9 833d a3fd 3bbd b03f 6cbd 9e23 80bd
00000140: be00 963d 7346 fabd f43b 293c 024c b6bc
00000150: e87c a33d d5d9 9c3b baac 4abd 6b66 3bbd
00000160: 96bd 3f3d c927 0d3d 28d5 4a3d 13ff 6d3d
00000170: 0ac7 ce3d 7347 583c 997a 55be 2553 46bd

rnn.bias_hh_l0_reverse f4 [96]
0.006195555 0.0040335357 0.005679704 0.0034540968 0.004582589 0.08488992 0.017047081 0.0010621655
0.002400863 0.0045024054 0.002799545 0.0040690815 -0.0039327284 0.004464202 0.009973423 0.011113744
0.002858741 -0.0011843389 -6.1076855e-07 -2.6859207e-05 0.01014706 0.00015894006 0.040752806 0.0060301125
0.0053318306 0.003800727 0.0049964674 0.0035559984 0.0073316703 0.030162605 0.035351228 0.009439304
-0.03074811 -0.075575754 -0.018082114 -0.011127991 -0.03133468 -0.1147612 -0.045429796 -0.015942845
6.0278026e-06 -0.030599656 -0.019367862 -0.0166294 0.0207364 0.0027831758 -0.013967049 -0.013150562
0.004058547 0.001022 -0.011281713 -0.0028689862 -0.013613897 -0.005045686 -0.1340646 -0.018536739
-0.03141023 -0.01940504 -0.01654105 -0.009747611 -0.015465408 -0.15152982 -0.11426044 -0.0775277
0.024220832 -0.0283723 0.02421216 0.028454162 0.02287142 0.14071794 0.00676095 -0.010105088
0.028534463 0.023117851 0.01709298 -0.028449776 0.07403181 -0.04295268 -0.038324844 -0.064835824
0.03221103 -0.020579921 0.0039306427 -0.008910293 0.04078385 0.0032170508 0.16625483 -0.022359293
0.025577994 0.016859585 0.024302915 0.02795894 0.04000847 -0.027682673 -0.008862829 -0.02399046
00000000: 1504 cb3b c02b 843b cf1c ba3b 215e 623b
00000010: 8b29 963b c4da ad3d 52a6 8b3c 5c38 8b3a
00000020: cc57 1d3b ea88 933b 9278 373b ee55 853b
00000030: 1ede 80bb 7148 923b 9167 233c 6c16 363c
00000040: b759 3b3b d23b 9bba b2f3 23b5 b54f e1b7
00000050: db3f 263c 26a9 2639 6aec 263d 4098 c53b
00000060: a3b6 ae3b 9e15 793b 68b9 a33b c10b 693b
00000070: 823e f03b 9117 f73c 73cc 103d 4fa7 1a3c
00000080: 76e3 fbbc 76c7 9abd f120 94bc 2d52 36bc
00000090: cb58 00bd ec07 ebbd 9814 3abd 929a 82bc
000000a0: 6e42 ca36 21ac fabc 5aa9 9ebc 613a 88bc
000000b0: 62df a93c f165 363b 0dd6 64bc 7475 57bc
000000c0: 8ffd 843b a1f4 853a efd6 38bc 9a05 3cbb
000000d0: d30c 5fbc 4856 a5bb 3b48 09be 5cda 97bc
000000e0: 03a8 00bd 52f7 9ebc 1981 87bc 72b4 1fbc
000000f0: 9f62 7dbc a22a 1bbe 6101 eabd d8c6 9ebd
00000100: c46a c63c 076d e8bc 9458 c63c b418 e93c
00000110: d85c bb3c 5d18 103e f68a dd3b d08f 25bc
00000120: 1bc1 e93c a661 bd3c 9406 8c3c 810f e9bc
00000130: fd9d 973d 26ef 2fbd 83fa 1cbd a5c8 84bd
00000140: b7ef 033d 3997 a8bc 9fcc 803b 7afc 11bc
00000150: f70c 273d 28d5 523b b53e 2a3e d62a b7bc
00000160: f188 d13c 1d1d 8a3c e816 c73c 260a e53c
00000170: ecdf 233d c6c6 e2bc 6635 11bc a487 c4bc

rnn.weight_ih_l1 f4 [96, 64]
6.66022e-05 7.288643e-05 9.4974275e-05 5.7861118e-05 -5.1266736e-05 5.8277943e-05 -0.00014915173 8.184697e-05
-7.995264e-05 -2.9595449e-06 7.776312e-06 8.024143e-05 3.3153276e-05 0.00012301194 -7.5286094e-05 -0.00012615656
-0.00021399697 8.59692e-05 6.2231746e-05 7.414803e-05 -8.3237515e-05 7.597648e-05 -7.5816046e-05 -0.00010059012
-6.569178e-05 0.00011420943 -8.816067e-05 6.726605e-05 -9.2358685e-05 -6.425568e-05 8.1274164e-05 8.6422355e-05
-5.517803e-05 -5.1958837e-06 -8.098532e-05 -0.00011717296 -5.2131196e-05 -1.3847084e-05 -4.4722725e-05 8.114439e-05
-0.00010974926 -5.422004e-05 -7.326869e-05 9.8454264e-05 -9.379909e-06 3.2811942e-05 0.000102931845 2.0184565e-05
-0.00012620902 9.486226e-05 -7.178375e-05 8.303811e-05 -0.000113766095 9.329306e-05 -0.00013645929 8.907052e-05
-5.6753695e-05 -6.5742875e-05 -9.2156355e-05 -0.00011833307 -0.00010836746 -7.5849945e-05 -0.0001239029 -7.752234e-05
5.401132e-05 -6.3021043e-06 2.5107693e-05 3.3918644e-05 -1.27881785e-05 2.6233107e-05 0.00016704234 1.8035551e-05
-3.1362717e-05 5.437301e-05 -4.4494795e-05 2.8011314e-05 4.5078217e-05 5.6959384e-06 -4.1071562e-05 4.9279482e-05
-3.0716554e-05 3.750048e-05 3.330952e-05 -1.7868286e-05 -2.4063527e-05 3.174932e-05 -3.6641075e-05 -2.2537079e-05
-2.839687e-05 8.55468e-05 3.198672e-05 2.2836924e-05 -1.6933542e-05 3.7975766e-05 1.8662291e-05 -2.4782346e-05
-3.155394e-05 -8.204614e-05 -4.085702e-05 -4.0864372e-05 -3.461499e-05 -6.6783214e-05 -3.6430793e-05 2.882608e-05
8.388028e-06 -3.4054407e-05 -3.2101303e-05 4.113049e-05 0.00014719045 -9.918389e-05 4.1813953e-05 -3.5577785e-05
2.15767e-05 -2.9302193e-05 -3.4053763e-05 4.570143e-05 -4.6638692e-05 3.4347777e-05 6.1257146e-05 4.309686e-05
-3.374081e-05 -3.1862408e-05 -4.212336e-05 -3.8397982e-05 -5.0561815e-05 -5.4919226e-05 2.1250767e-06 -4.6580357e-05
-0.000107136526 -0.0001325111 -0.00012492391 -0.000114615024 0.000115802264 -7.535391e-05 0.00012394482 -0.00012844228
0.000115016584 -5.079468e-05 4.532531e-05 -0.00011854094 -7.887522e-05 -1.906079e-05 -1.8536024e-07 0.0001031543
5.7931837e-05 -0.00011985825 -0.00011387792 -0.00010033387 0.00011775036 -1.6577358e-05 0.00010822636 0.00012183178
0.00011546296 0.00015268565 4.2087606e-05 -0.0001241981 0.00010433629 -9.249537e-05 -0.00012683707 -4.521873e-06
0.00012336469 -9.548352e-06 7.1543924e-05 5.828688e-05 0.00011733123 6.820458e-05 0.000108363194 -0.00012310685
2.0908827e-05 0.000119829776 0.00010987828 -6.6191446e-05 1.0993473e-05 -1.1423413e-05 -7.236986e-05 -2.7290938e-05
1.3931253e-05 -6.138099e-06 0.00011607766 -9.912636e-05 5.921677e-05 -0.000115742616 7.894184e-06 -7.4887845e-05
0.00012097581 0.00010239941 7.134106e-05 4.833735e-05 7.9408586e-05 0.00010303114 0.00012553637 9.6971424e-05
-0.0001662197 -0.0016848663 -0.0021006842 -0.0021518238 0.00014590392 0.0009804165 0.002827608 -0.001726837
0.0015421913 -0.0020221905 -0.0010144591 -0.0020460777 -0.0002796788 0.0034922992 -0.0030534407 0.0009885832
0.00383702 -0.00093293184 -0.0019884936 -0.00249507 0.002375396 0.0022822577 0.00029810506 0.001996744
0.00066962856 0.0044415793 -0.0045530214 -0.001602097 0.0012342659 -0.0036560737 -0.0025552353 0.002657776
0.0004542314 -0.0035178037 -0.0011868422 -0.0011315712 -0.00011879606 4.6586112e-05 4.1385112e-05 0.0001328126
-0.0013281043 7.371109e-05 -0.00022814231 0.00079815125 0.0049545015 -0.0007452343 0.00047440673 0.0012215689
-0.0010976007 0.000965098 0.00048063265 -0.00022438155 -0.00071575004 -0.0009805154 0.0009479831 0.0010154904
0.00047442285 -0.0005698416 -0.0011336957 -0.0013616936 -4.8871483e-05 0.00036217624 0.0018127632 0.00042090958
00000000: c9ac 8b38 9bda 9838 ed2c c738 e7af 7238
00000010: 3d07 57b8 776f 7438 9d65 1cb9 42a5 ab38
00000020: 3fac a7b8 989c 46b6 0177 0237 4a47 a838
00000030: 0f0e 0b38 c4fc 0039 eae2 9db8 e548 04b9
00000040: 6064 60b9 5d4a b438 6a82 8238 ec7f 9b38
00000050: cd8f aeb8 9055 9f38 6eff 9eb8 e9f3 d2b8
00000060: 01c4 89b8 b983 ef38 e6e2 b8b8 3011 8d38
00000070: b1b0 c1b8 01c1 86b8 bc71 aa38 a63d b538
00000080: f56e 67b8 4d58 aeb6 aad6 a9b8 c1ba f5b8
00000090: 72a7 5ab8 c650 68b7 a994 3bb8 102c aa38
000000a0: 2f29 e6b8 536a 63b8 d4a7 99b8 3b79 ce38
000000b0: 675e 1db7 8e9f 0938 1ddd d738 0652 a937
000000c0: fa56 04b9 caf0 c638 9b8a 96b8 bf24 ae38
000000d0: b595 eeb8 55a6 c338 8316 0fb9 5fcb ba38
000000e0: d10a 6eb8 70df 89b8 1144 c1b8 9529 f8b8
000000f0: 5643 e3b8 a111 9fb8 eeeb 01b9 7d93 a2b8
00000100: 378a 6238 aa76 d3b6 5c9e d237 de43 0e38
00000110: cf8c 56b7 2b0f dc37 1628 2f39 0d4b 9737
00000120: 768b 03b8 930e 6438 ec9f 3ab8 d7f9 ea37
00000130: 5e12 3d38 bd1f bf36 4144 2cb8 71b1 4e38
00000140: a6d5 00b8 d549 1d38 d3b5 0b38 dae3 95b7
00000150: 08dc c9b7 932a 0538 0eaf 19b8 020e bdb7
00000160: d035 eeb7 9767 b338 7b29 0638 ec91 bf37
00000170: 810c 8eb7 2b48 1f38 f78c 9c37 afe3 cfb7
00000180: c958 04b8 3010 acb8 e45d 2bb8 c965 2bb8
00000190: 902f 11b8 f70d 8cb8 44cd 18b8 89cf f137
000001a0: 4eba 0c37 a4d5 0eb8 83a4 06b8 8783 2c38
000001b0: 2357 1a39 f200 d0b8 6461 2f38 5b39 15b8
000001c0: 9cff b437 fbcd f5b7 f3d4 0eb8 89af 3f38
000001d0: ea9d 43b8 a510 1038 2e77 8038 e7c2 3438
000001e0: eb84 0db8 00a4 05b8 9dad 30b8 850d 21b8
000001f0: 5612 54b8 1259 66b8 8a9c 0e36 475f 43b8
00000200: 7cae e0b8 adf2 0ab9 02fe 02b9 795d f0b8
00000210: deda f238 5307 9eb8 2ff7 0139 76ae 06b9
00000220: 0f35 f138 5f0c 55b8 ae1b 3e38 2f99 f8b8
00000230: d069 a5b8 bce4 9fb7 6f07 47b4 8b54 d838
00000240: d6fb 7238 685c fbb8 bed1 eeb8 566a d2b8
00000250: bef0 f638 9b0f 8bb7 96f7 e238 f07f ff38
00000260: b424 f238 3e1a 2039 3987 3038 2c3b 02b9
00000270: 1fcf da38 13fa c1b8 91ff 04b9 98ba 97b6
00000280: 755b 0139 dc31 20b7 da09 9638 1079 7438
00000290: b90f f638 0e09 8f38 0c41 e338 3e16 01b9
000002a0: 5d65 af37 1f4d fb38 746e e638 43d0 8ab8
000002b0: 9b70 3837 2fa7 3fb7 46c5 97b8 d8ee e4b7
000002c0: 47ba 6937 def5 cdb6 b86e f338 0fe2 cfb8
000002d0: 865f 7838 d8ba f2b8 4371 0437 1b0d 9db8
000002e0: 65b4 fd38 44bf d638 f19c 9538 d6bd 4a38
000002f0: 2988 a638 6c12 d838 6aa2 0339 235d cb38
00000300: 434b 2eb9 bbd6 dcba a2ab 09bb 9d05 0dbb
00000310: c9fd 1839 5281 803a 644f 393b 0957 e2ba
00000320: 5a23 ca3a ba86 04bb 99f7 84ba 7d17 06bb
00000330: daa1 92b9 0fdf 643b 3c1c 48bb 5993 813a
00000340: 8376 7b3b ff8f 74ba 6351 02bb 5484 23bb
00000350: 88ac 1b3b ee91 153b fc4a 9c39 cedb 023b
00000360: 038a 2f3a ab8a 913b 8331 95bb 74fd d1ba
00000370: 17c7 a13a bd9a 6fbb bc75 27bb 152e 2e3b
00000380: e825 ee39 f48a 66bb d18f 9bba 3b51 94ba
00000390: 2622 f9b8 7565 4338 ed94 2d38 9c43 0b39
000003a0: c913 aeba 5795 9a38 7c39 6fb9 063b 513a
000003b0: 5f59 a23b d45b 43ba cbb9 f839 0d1d a03a
000003c0: 5edd 8fba a1fe 7c3a 6cfd fb39 f747 6bb9
000003d0: 2ca1 3bba a384 80ba 1282 783a 341a 853a
000003e0: f5bb f839 6c61 15ba 8498 94ba db7a b2ba
000003f0: 5bfb 4cb8 79e2 bd39 3d9a ed3a 87ad dc39

rnn.weight_hh_l1 f4 [96, 32]
-1.9111429e-05 -1.3323067e-05 -2.1026783e-06 -0.00016587254 8.519286e-05 -9.958897e-06 2.943227e-05 3.148688e-05
4.6138823e-05 -6.209435e-05 2.8722283e-08 -5.382228e-05 -3.6638947e-05 -1.4188671e-05 -3.8321938e-05 -6.7354113e-06
3.2818967e-05 8.54044e-05 8.850975e-05 7.684747e-06 2.1508566e-05 -5.6316287e-05 -2.2931856e-06 -2.1083465e-06
3.9906863e-05 -1.1665386e-05 -1.6592394e-05 5.4751144e-05 8.4506486e-05 -4.355908e-05 5.7995e-05 -3.407063e-05
-6.2053077e-06 -5.00552e-05 4.6665835e-05 5.936501e-05 -1.1717962e-05 -3.9237224e-05 -0.00010822581 3.7012825e-05
2.532178e-05 3.9307728e-05 6.244809e-06 -5.1639352e-05 5.6430265e-05 -2.5593888e-05 1.4075584e-06 5.429294e-05
-1.6235268e-05 -3.2703712e-05 -4.9290325e-06 -4.067925e-05 2.2204738e-05 -4.3448566e-05 -2.7232858e-05 -5.2616488e-06
-8.465745e-07 -0.00012648989 -6.163172e-05 -4.0008887e-05 9.9632594e-08 -1.58011e-05 7.572952e-05 -8.0947675e-06
4.7027497e-05 2.3953547e-05 2.6369644e-05 0.00014735317 -7.44514e-05 2.1469004e-05 -0.000306122 -3.7569744e-06
1.8522389e-05 0.0001224504 2.4609055e-05 0.00010424444 1.9456286e-06 9.389869e-06 0.00014432998 5.9137445e-05
-0.00013821137 -0.00013065088 -0.00012272723 1.2864946e-05 2.8771077e-05 9.452957e-05 9.536054e-05 4.1550564e-07
-9.038037e-05 -4.1322884e-05 -5.8461348e-05 3.4070727e-06 -9.64898e-05 0.00012900328 -2.2133669e-05 8.179045e-05
0.0018045077 -0.00037634475 -0.00082096626 -0.0040962035 -0.0019069165 -0.00055088545 0.0042372975 0.00034317834
0.0016700124 0.00408901 -0.0007804714 0.0023437939 -0.001466124 0.00034497585 0.0034275835 0.0028431432
-0.0022367598 -0.002827575 -0.005068881 5.4312295e-05 0.003393973 0.0036780315 0.0008982237 -0.0012900837
-0.0038943915 -0.00095726317 -0.0017088198 0.00046941786 -0.003432375 0.0032650866 -0.00037890646 0.0021759165
-0.0007954743 -0.00289586 -0.0006026943 0.009733633 0.015605414 -0.0038891518 -0.009009971 -0.0035579312
-0.0011341982 -0.015645668 -0.0040046154 -0.0161493 0.0007669427 0.0022325716 -0.01687262 -0.0017302051
0.016639033 0.0118895285 0.016130287 -0.0028932127 -0.0010029699 -0.016168669 -0.0050546792 -0.0014513263
0.015726734 0.001651658 -0.0036543 -1.8980421e-05 0.017739337 -0.016469628 0.016065067 -0.015782837
6.3115585e-06 2.1123002e-05 -8.7105366e-07 -3.5046236e-05 5.1231324e-05 1.5930791e-05 1.4026177e-05 -2.5896774e-05
2.470338e-05 -2.0478306e-05 -2.5080319e-05 -2.218158e-05 4.2074316e-05 6.9485344e-05 -1.7969835e-05 7.88422e-06
2.0409767e-05 3.436868e-05 2.1824884e-05 -1.6760792e-05 -2.7437454e-05 -2.3965054e-05 1.7730898e-06 -3.0822578e-06
1.8564258e-05 -1.21508565e-05 4.227021e-05 -2.1978676e-05 1.6802893e-05 6.098964e-06 2.6482498e-05 -1.6069003e-05
0.00017422033 -0.0008036531 -0.0019081887 -0.033718847 0.06273572 -1.6190934e-05 0.02250074 0.00024486706
0.0010629062 -0.07805657 0.0006764948 -0.07997471 -0.001911456 -0.0030273884 -0.080742605 0.0013381961
0.080242656 0.068672754 0.078903764 -0.001830501 0.0013024708 -0.07947783 -0.011908075 0.0026368687
0.07872451 0.0008433205 -0.00016858184 0.0011057573 0.06857882 -0.08003517 0.010675349 -0.078668535
3.1683754e-05 -0.00014649215 -3.4233926e-05 0.0003858701 -0.0004420012 2.9659668e-05 -0.0005018261 8.458457e-05
2.2804079e-05 0.00047486174 0.00012556506 0.00039750477 1.2125181e-06 -4.3634882e-05 0.0004107091 9.317744e-05
-0.0004368555 -0.0004335798 -0.00041945808 -4.0387396e-05 7.853345e-05 0.00041098704 0.000408138 2.0704756e-05
-0.0004315025 -6.991273e-05 -7.920669e-05 3.7679256e-05 -0.00041223475 0.00041981574 -0.00031092172 0.00043394484
00000000: 7b51 a0b7 2386 5fb7 bd1b 0db6 12ee 2db9
00000010: 92a9 b238 2315 27b7 52e5 f637 c810 0438
00000020: 2f85 4138 a638 82b8 f8b8 f632 3cbf 61b8
00000030: c5ac 19b8 e10b 6eb7 debb 20b8 be00 e2b6
00000040: 19a7 0938 231b b338 4f9e b938 bded 0037
00000050: 4b6d b437 2735 6cb8 a1e4 19b6 1e7d 0db6
00000060: ab61 2738 74b6 43b7 e52f 8bb7 98a4 6538
00000070: 1339 b138 35b3 36b8 a83f 7338 0fe7 0eb8
00000080: 3037 d0b6 5df2 51b8 0fbb 4338 b2fe 7838
00000090: 4398 44b7 a692 24b8 4af7 e2b8 383e 1b38
000000a0: 1c6a d437 5ade 2438 808a d136 5597 58b8
000000b0: 89af 6c38 75b2 d6b7 57eb bc35 9ab8 6338
000000c0: f930 88b7 582b 09b8 1164 a5b6 039f 2ab8
000000d0: 5044 ba37 8b3c 36b8 1e72 e4b7 388d b0b6
000000e0: 2840 63b5 5fa2 04b9 4740 81b8 37cf 27b8
000000f0: 99f5 d533 9b8c 84b7 fad0 9e38 c3ce 07b7
00000100: 643f 4538 daef c837 6134 dd37 d182 1a39
00000110: cb22 9cb8 5618 b437 007f a0b9 5420 7cb6
00000120: 8760 9b37 0766 0039 8b6f ce37 cf9d da38
00000130: a591 0236 2e89 1d37 4957 1739 590a 7838
00000140: d5ec 10b9 54ff 08b9 57b0 00b9 86d6 5737
00000150: 6b59 f137 2d3e c638 4dfc c738 a912 df34
00000160: 978a bdb8 1c52 2db8 6534 75b8 10a5 6436
00000170: 915a cab8 0e45 0739 b1ab b9b7 ea86 ab38
00000180: 3b85 ec3a 2350 c5b9 1d36 57ba 7239 86bb
00000190: 80f1 f9ba 4c69 10ba 07d9 8a3b 9eec b339
000001a0: 51e4 da3a 1afd 853b 8d98 4cba 569a 193b
000001b0: f52a c0ba e0dd b439 4fa1 603b 0754 3a3b
000001c0: 9a96 12bb d64e 39bb db18 a6bb 62cd 6338
000001d0: 6b6d 5e3b 210b 713b c676 6b3a 0718 a9ba
000001e0: 0c39 7fbb d8f0 7aba 7afa dfba 331c f639
000001f0: b2f1 60bb 10fb 553b f7a7 c6b9 d299 0e3b
00000200: 6087 50ba 78c8 3dbb 21fe 1dba d179 1f3c
00000210: daad 7f3c 24e1 7ebb 8f9e 13bc 2e2c 69bb
00000220: 60a9 94ba 582b 80bc 2639 83bb 894b 84bc
00000230: a70c 493a 5650 123b 7338 8abc 0dc8 e2ba
00000240: 954e 883c 4ccc 423c aa23 843c 0e9c 3dbb
00000250: 1676 83ba 2874 84bc b9a1 a5bb 6e3a beba
00000260: 5ad5 803c 727c d83a fb7c 6fbb 2538 9fb7
00000270: 1652 913c 50eb 86bc e39a 833c 024b 81bc
00000280: e0c7 d336 4d31 b137 5ad2 69b5 9cfe 12b8
00000290: 37e1 5638 1da3 8537 f951 6b37 e63c d9b7
000002a0: 1b3a cf37 d4c8 abb7 9363 d2b7 9512 bab7
000002b0: f478 3038 a9b8 9138 edbd 96b7 7846 0437
000002c0: a435 ab37 1727 1038 9514 b737 8799 8cb7
000002d0: 7c29 e6b7 9008 c9b7 e7fa ed35 c9d8 4eb6
000002e0: 71ba 9b37 88db 4bb7 4b4b 3138 d95e b8b7
000002f0: f0f3 8c37 b4a5 cc36 bb26 de37 eccb 86b7
00000300: eaae 3639 3fac 52ba 301c faba c61c 0abd
00000310: 967b 803d c4d1 87b7 7953 b83c 8061 8039
00000320: 3751 8b3a 1fdc 9fbd cc56 313a c8c9 a3bd
00000330: d289 faba 2667 46bb 615c a5bd 6966 af3a
00000340: 4356 a43d 4da4 8c3d 4c98 a13d 6ced efba
00000350: abb7 aa3a 46c5 a2bd 161a 43bc 51cf 2c3b
00000360: 513a a13d 4812 5d3a 58c5 30b9 0fef 903a
00000370: 0d73 8c3d 7be9 a3bd a9e7 2e3c f81c a1bd
00000380: 2ce4 0438 b09b 19b9 6696 0fb8 9c4e ca39
00000390: 66bc e7b9 a7cd f837 fb8c 03ba ff62 b138
000003a0: 634b bf37 ddf6 f839 1daa 0339 3068 d039
000003b0: cebd a235 9904 37b8 7154 d739 4268 c338
000003c0: c109 e5b9 1852 e3b9 b6ea dbb9 a365 29b8
000003d0: 53b2 a438 bf79 d739 5bfb d539 20af ad37
000003e0: 493b e2b9 1c9e 92b8 c51b a6b8 cb09 1e38
000003f0: 3621 d8b9 b71a dc39 3503 a3b9 1783 e339
